60000 train samples
10000 test samples
Model: "sequential_1"
_________________________________________________________________
Layer (type)                 Output Shape              Param #   
=================================================================
dense_3 (Dense)              (None, 512)               401920    
_________________________________________________________________
dropout_2 (Dropout)          (None, 512)               0         
_________________________________________________________________
dense_4 (Dense)              (None, 512)               262656    
_________________________________________________________________
dropout_3 (Dropout)          (None, 512)               0         
_________________________________________________________________
dense_5 (Dense)              (None, 10)                5130      
=================================================================
Total params: 669,706
Trainable params: 669,706
Non-trainable params: 0
_________________________________________________________________
Epoch 1/20
469/469 [==============================] - 5s 10ms/step - loss: 0.2457 - accuracy: 0.9240 - val_loss: 0.1036 - val_accuracy: 0.9676
Epoch 2/20
469/469 [==============================] - 5s 10ms/step - loss: 0.1024 - accuracy: 0.9695 - val_loss: 0.0967 - val_accuracy: 0.9712
…
